…
><td>检查网络是否处于训练模式。</td></tr><tr><td><code>net.cuda()</code></td><td>将整个网络迁移到 GPU 上，以利用其计算资源。</td></tr><tr><td><code>net.cpu()</code></td><td>将整个网络迁移到 CPU 上，通常用于推理或当 GPU 资源不可用时。</td></tr><tr><td><code>net.apply()</code></td><td>对神经网络中的所有层进行一致的操作，例如初始化权重。</td></tr><tr><td><code>net.parameters()</code></td><td>用于迭代网络中所有的参数，常用于优化过程中更新权重。</td></tr></tbody></table></div><figure class="highlight python"><table><tr><td class="gutter"><pre><span class="line">1</span><br></pre></td><td class="code"><pre><span class="line">net.train()</span><br></pre></td></tr></table></figure><pre><code>Model(  (linear1): Linear(in_features=20, out_features=13, bias=True)  (linear2): Linear(in_features=13, out_features=8, bias=True)  (output): Linear(in_features=8, out_features=3, bias=True))</code></pre><figure class="highlight python"><table><tr><td class="gutter"><pre><span class="line">1</span><br></pre></td><td class="code"><pre><span class="line">net.cuda()</span><br></pre></td></tr></table></figure><pre><code>Model(  (linear1): Linear(in_features=20, out_features=13, bias=True)  (linear2): Linear(in_features=13, out_features=8, bias=True)  (output): Linear(in_features=8, out_features=3, bias=True))</code></pre><figure class="highlight python"><table><tr><td class="gutter"><pre><span class="line">1</span><br></pre></td><td class="code"><pre><span class="line">net.cpu()</span><br></pre></td></tr></table></figure><pre><code>Model(  (linear1): Linear(in_features=20, out_features=13, bias=True)  (linear2): Linear(in_features=13, out_features=8, bias=True)  (output): Linear(in_features=8, out_features=3, bias=True))</code></pre><figure class="highlight python"><table><tr><td class="gutter"><pre><span class="line">1</span><br><span class="line">2</span><br><span class="line">3</span><br><span class="line">4</span><br><span class="line">5</span><br></pre></td><td class="code"><pre><span class="line"><span class="keyword">def</span> <span class="title function_">initial_0</span>(<span class="params">m</span>):</span><br><span class="line">    <span class="keyword">if</span> <span class="built_in">type</span>(m) == nn.Linear:</span><br><span class="line">      m.weight.data.fill_(<span class="number">0</span>)</span><br><span class="line"></span><br><span class="line">net.apply(initial_0)</span><br></pre></td></tr></table></figure><pre><code>Model(  (linear1): Linear(in_features=20, out_features=13, bias=True)  (linear2): Linear(in_features=13, out_features=8, bias=True)  (output): Linear(in_features=8, out_features=3, bias=True))</code></pre><figure class="highlight python"><table><tr><td class="gutter"><pre><span class="line">1</span><br><span class="line">2</span><br><span class="line">3</span><br></pre></td><td class="code"><pre><span class="line"><span class="comment"># for param in net.parameters():</span></span><br><span class="line"><span class="comment">#  print(param)</span></span><br><span class="line"><span class="comment">#  将每层的参数都打印出来</span></span><br></pre></td></tr></table></figure>]]></content>
…
